name: "3DDLAutoencoder"
layer {
  name: "data"
  type: "Data"
  top: "data"
  top: "label"
  include {
    phase: TRAIN
  }
  transform_param {
    scale: 1.0
  }
  data_param {
    source: "./3ddl_train_lmdb"
    batch_size: 1
    backend: LMDB
  }
}
layer {
  name: "data"
  type: "Data"
  top: "data"
  top: "label"
  include {
    phase: TEST
    stage: "test-on-train"
  }
  transform_param {
    scale: 1.0
  }
  data_param {
    source: "./3ddl_train_lmdb (copy)"
    batch_size: 1
    backend: LMDB
  }
}
layer {
  name: "data"
  type: "Data"
  top: "data"
  include {
    phase: TEST
    stage: "test-on-test"
  }
  transform_param {
    scale: 1.0
  }
  data_param {
    source: "./3ddl_test_lmdb"
    batch_size: 1
    backend: LMDB
  }
}
layer {
  name: "flatdata"
  type: "Flatten"
  bottom: "data"
  top: "flatdata"
}
layer {
  name: "encode1"
  type: "InnerProduct"
  bottom: "data"
  top: "encode1"
  param {
    lr_mult: 1
    decay_mult: 1
  }
  param {
    lr_mult: 1
    decay_mult: 0
  }
  inner_product_param {
    num_output: 50
    weight_filler {
      type: "gaussian"
      std: 1
      sparse: 4
    }
    bias_filler {
      type: "constant"
      value: 0
    }
  }
}
layer {
  name: "encode1neuron"
  type: "Sigmoid"
  bottom: "encode1"
  top: "encode1neuron"
}
layer {
  name: "encode2"
  type: "InnerProduct"
  bottom: "encode1neuron"
  top: "encode2"
  param {
    lr_mult: 1
    decay_mult: 1
  }
  param {
    lr_mult: 1
    decay_mult: 0
  }
  inner_product_param {
    num_output: 10
    weight_filler {
      type: "gaussian"
      std: 1
      sparse: 4
    }
    bias_filler {
      type: "constant"
      value: 0
    }
  }
}
layer {
  name: "decode2"
  type: "InnerProduct"
  bottom: "encode2"
  top: "decode2"
  param {
    lr_mult: 1
    decay_mult: 1
  }
  param {
    lr_mult: 1
    decay_mult: 0
  }
  inner_product_param {
    num_output: 50
    weight_filler {
      type: "gaussian"
      std: 1
      sparse: 4
    }
    bias_filler {
      type: "constant"
      value: 0
    }
  }
}
layer {
  name: "decode2neuron"
  type: "Sigmoid"
  bottom: "decode2"
  top: "decode2neuron"
}
layer {
  name: "decode1"
  type: "InnerProduct"
  bottom: "decode2neuron"
  top: "decode1"
  param {
    lr_mult: 1
    decay_mult: 1
  }
  param {
    lr_mult: 1
    decay_mult: 0
  }
  inner_product_param {
    num_output: 200
    weight_filler {
      type: "gaussian"
      std: 1
      sparse: 4
    }
    bias_filler {
      type: "constant"
      value: 0
    }
  }
}
layer {
  name: "loss"
  type: "SigmoidCrossEntropyLoss"
  bottom: "decode1"
  bottom: "flatdata"
  top: "cross_entropy_loss"
  loss_weight: 1
}
layer {
  name: "decode1neuron"
  type: "Sigmoid"
  bottom: "decode1"
  top: "decode1neuron"
}
layer {
  name: "loss"
  type: "EuclideanLoss"
  bottom: "decode1neuron"
  bottom: "flatdata"
  top: "l2_error"
  loss_weight: 0
}
layer {
  name: "ip2"
  type: "InnerProduct"
  bottom: "encode2"
  top: "ip2"
  param {
    lr_mult: 1
    decay_mult: 1
  }
  param {
    lr_mult: 1
    decay_mult: 0
  }
  inner_product_param {
    num_output: 5
    weight_filler {
      type: "gaussian"
      std: 1
      sparse: 4
    }
    bias_filler {
      type: "constant"
      value: 0
    }
  }
}
layer {
  name: "ip2neuron"
  type: "Sigmoid"
  bottom: "ip2"
  top: "ip2neuron"
}
layer {
  name: "accuracy"
  type: "Accuracy"
  bottom: "ip2neuron"
  bottom: "label"
  top: "accuracy"
  include {
    phase: TEST
  }
}
layer {
  name: "loss"
  type: "SoftmaxWithLoss"
  bottom: "ip2neuron"
  bottom: "label"
  top: "loss"
}
